data.pth (torch, 5535 bytes, 6 tensors)

l1.weight f4 [8, 58]
00000000: 570b 863e 320b 023f 0673 acbe 6048 f7be
00000010: df8b 95be fc2e 38be 9ec7 a5bb e073 bbbe
00000020: 62eb 6bbd ae1c 95be a539 6ebe 9abe 0d3f
00000030: 20d7 cb3e 966c 293f ae07 10be d9ca d83e
00000040: a2ba f33e 9303 8dbe 50e9 2bbe d94e 0c3f
00000050: 4c0c 02bf 237d 913e 0b0a 02bf b5d4 e5be
00000060: 3a1a 0c3f 733c 8c3e f713 eabe 9e2b 233f
00000070: 4752 c83e b0e8 c03e f180 a03e 0861 a73d
00000080: 2d80 163f aaaa 8e3e a7c4 5ebe 1a3d 063f
00000090: a9ea 0d3f e4b2 093f 1a10 1abc 1e59 99bd
000000a0: 6119 7fbd 7c4a 56be 83f8 fb3c 76b0 1e3f
000000b0: db04 fa3e 1a66 833e b5e9 da3e 42f7 063f
000000c0: c1f6 93bd be77 183f 1311 5d3e 3041 dd3e
000000d0: 03b4 eebd 8fc9 353f 7ded ec3e 6697 0a3f
000000e0: ca7c edbd 6305 dd3d e610 8abe 9fae b4be
000000f0: 093b d2be 6eb7 953e c340 003e 34e7 363f
00000100: 546c 58be e3b6 d7be 7024 0bbf 0e59 aebe
00000110: 8a48 263e 16e7 8f3d fdf7 cf3d 487a a63d
00000120: 2c6d ce3d d6e8 44be de0a 32bc b8d3 9f3e
00000130: fc10 123f a312 0a3f 598b b43e 6789 e8bc
00000140: 6b7a 793e 7ded a93e 264d 9f3e c2c7 53be
00000150: 64f4 9d3d 10d7 b03e 991a b7be 1591 753e
00000160: 73c2 a2be d12d 0e3f 42c7 bdbc 14bd 6e3d
00000170: c616 1ebf 6ccb 48be d7e5 563d 7fa9 b23e
00000180: dd12 f1be eb42 48bc f7d2 4dbe 5c14 db3d
00000190: fdfb 153f 6a25 f23e ad21 483d 7d7f 19be
000001a0: 5323 5cbe ceb2 92be e300 9c3d 2551 08bf
000001b0: 183c 0cbe 2c4a 5b3e 21c6 783e 1196 053f
000001c0: 9517 173e 5a0d 033f 6e62 cdbd d1d8 d03d
000001d0: 780b 303e bf10 a43e bc21 ec3e 79dd 0dbd
000001e0: 7662 8fbb 9d13 0a3f b2a6 cb3e 4ce1 cf3e
000001f0: 7da8 073f 89d2 8b3e bf72 4bbe 6c12 6abe
00000200: d750 943e 9048 94bd 175f e3bd aacf dc3e
00000210: e9d0 02be 7d21 efbd 884c 0f3f 9dd2 abbe
00000220: 5775 a1be 8523 3d3e 8172 a1be cc75 a1be
00000230: 13c8 0bbf 1349 873e ffb0 6abe 2a53 d6be
00000240: ecaa 0c3f 0419 783d 781e be3e 661d c13e
00000250: d242 cdbd e70d f53d 31ae 993e 8458 e73e
00000260: 7c10 66be d030 923d 27aa 073f f2f7 d83e
00000270: 9324 d13e 364b 21be 2c94 803e a472 f9be
00000280: 7272 ecbb 9213 c23e a4ab ce3e 515e 0b3f
00000290: 4ba0 04be bca3 dd3e bcd8 913e a88f 51bd
000002a0: c5cf 11be e39a 0dbf 929a 93be 8d88 92be
000002b0: c7ba ad3e 74e4 de3e d99c 5bbd 933a 26be
000002c0: d944 e23e 316c 1a3e c0be 163f 6935 04bf
000002d0: b2f6 cc3e b268 043f e217 143f 60d0 e43e
000002e0: bc33 813e 4838 863d 24b2 133f 4ecb b73d
000002f0: 962c 703d 6546 aabd 0fa9 26bd cc50 b23e
00000300: 0776 0abf f256 c93e de9c e13e ed73 79be
00000310: e0e4 be3e b4e7 8b3e f121 aa3e 027c 8c3e
00000320: 7b44 933e 326d fe3e 4248 bdbe f90f 103e
00000330: f7cf 34bf a93b f1be 8ea3 8f3d 87bd dfbd
00000340: 20c9 193f 5754 b0bd 7a6c 9a3d 2e07 a33e
00000350: 555b f63e cd7c 023f bc6e e43e 27fc 743e
00000360: e814 edbd 31a8 fe3e 5dc0 56bc 6056 90be
00000370: 4710 a83e 16dc b7bd 8e88 763e 0d96 0bbf
00000380: ac83 79be f32d 7c3e 60bb 063e 51b8 fe3e
00000390: 95e6 b83d 3ae5 9e3e bad8 0d3f 00e2 613e
000003a0: 50cf 68be 8ad4 a9be 6537 a53e 5514 553e
000003b0: a297 e93e a30f 0a3f 8c70 8e3e d9c6 3a3e
000003c0: 495f a23d 6897 a73e 19f3 a73e 5a88 abbe
000003d0: b5e9 083f e4c3 18be 9455 393e a671 dabc
000003e0: 428c 35be 84a6 8a3e 5542 363f bab6 d43e
000003f0: dea8 1f3e 172d 4fbe 54bc 943e cc0b 5b3e
0.26180527 0.5079833 -0.33681506 -0.48297405 -0.29208276 -0.17986673 -0.0050591966 -0.36611843
-0.057597525 -0.29123443 -0.23264177 0.5536896 0.39812565 0.66181314 -0.1406543 0.4234226
0.47603327 -0.2754179 -0.1678822 0.5480781 -0.50800014 0.28415784 -0.50796574 -0.44888845
0.5472752 0.2738987 -0.45718357 0.6373843 0.39125273 0.37677526 0.31348374 0.08172804
0.5878933 0.2786458 -0.21754704 0.52436984 0.5543619 0.5378859 -0.009403253 -0.07487701
-0.062280063 -0.20926851 0.030758148 0.6198801 0.4883183 0.25663835 0.4275643 0.52721035
-0.07224799 0.5955771 0.21588545 0.43213797 -0.11655428 0.7101068 0.4627494 0.54137266
-0.11596067 0.10792043 -0.26966017 -0.35289475 -0.41060665 0.29241508 0.12524705 0.7144654
-0.21135074 -0.4213172 -0.54352474 -0.34052318 0.16238609 0.07026498 0.10154722 0.08128792
0.10079417 -0.19229445 -0.010866849 0.31216216 0.57057166 0.5393469 0.35262564 -0.028385831
0.24363105 0.33189002 0.31113547 -0.2068167 0.077126294 0.3453908 -0.3576248 0.23981126
-0.31788978 0.5553866 -0.023166303 0.058285788 -0.617535 -0.1960885 0.052465286 0.3489494
-0.47084704 -0.012222986 -0.20100008 0.106972426 0.5858763 0.4729417 0.04886024 -0.14990039
-0.2149785 -0.28652042 0.07617357 -0.53248817 -0.13694799 0.21415013 0.2429433 0.5218211
0.1475509 0.5119225 -0.100285396 0.101976044 0.17191875 0.32044026 0.46119487 -0.03463504
-0.004375751 0.5393618 0.39775616 0.40601575 0.5299147 0.27309063 -0.19867991 -0.2285859
0.28967926 -0.07240403 -0.11102121 0.43127185 -0.12775005 -0.11676309 0.5597615 -0.33559123
-0.31534836 0.18470581 -0.31532672 -0.31535184 -0.54602164 0.2642294 -0.22919081 -0.41860324
0.54948306 0.06057073 0.3713262 0.37717742 -0.100225106 0.11965542 0.3001571 0.4518472
-0.22467226 0.071382165 0.52994007 0.42376667 0.40848216 -0.15751347 0.25113046 -0.48720276
-0.0072157914 0.37905556 0.40365326 0.5444079 -0.12951772 0.43288982 0.28485668 -0.051162392
-0.14239414 -0.55314463 -0.28828865 -0.28619805 0.33931562 0.4353367 -0.05361638 -0.16233282
0.44193152 0.15080334 0.5888481 -0.51644 0.40031964 0.5172225 0.5784894 0.44690228
0.25234783 0.065537035 0.57693696 0.08974324 0.05863627 -0.08314208 -0.04068857 0.34827268
-0.54086345 0.39324147 0.44064993 -0.24360628 0.37283993 0.27325213 0.3322902 0.2743836
0.28763184 0.49692684 -0.3696919 0.14068593 -0.7062983 -0.4711583 0.070136175 -0.10924821
0.6007252 -0.086098365 0.075402215 0.31841415 0.48116556 0.5097168 0.44615734 0.23924313
-0.11576253 0.49737695 -0.013107386 -0.281909 0.3282492 -0.08977525 0.24075529 -0.54525834
-0.24366635 0.24626903 0.13157415 0.49749997 0.09028355 0.3103426 0.55408823 0.22058868
-0.22735333 -0.33169967 0.32268825 0.20808537 0.456235 0.5393011 0.2782024 0.18239917
0.079283305 0.327327 0.32802656 -0.33502465 0.5348161 -0.14918476 0.18099052 -0.02666552
-0.17729285 0.27080166 0.71194965 0.4154566 0.15591761 -0.20232044 0.29049933 0.21391219

l1.bias f4 [8]
00000000: 710a 023f 4e26 533f 4e75 a13e 3978 0a3f
00000010: b0ca f33e 126f 883e 27b2 793f 7d17 aa3e
0.5079718 0.82480323 0.3153481 0.54089695 0.47615576 0.2664724 0.97537464 0.33221045

l2.weight f4 [8, 8]
00000000: c248 e43e 22db 86bf 5d59 e33e afe9 0b3f
00000010: 65ae 373f ed3f 3d3e 02aa 6dbe 9ca9 543f
00000020: b7b8 a0be 6b46 183f ae4a 003f b4cd 65bf
00000030: 66ce 043f 5c66 cc3e cff8 c8be ab45 883f
00000040: 9d71 6fbd 74d0 063f e20b 3cbe c87c c7be
00000050: eb62 24be 3a20 84be 76c4 c93f 4cc7 c8be
00000060: 4bdb 8a3f 9818 dbbe 7e96 8a3f 10d7 1cbf
00000070: 07f2 debe 0635 913f 4351 813f d0c9 1f3f
00000080: a66c 97be a765 ac3e 93d8 59bf 726b 1c3f
00000090: 2db0 fe3e f736 46bf c82f 373f 080d f3be
000000a0: 79f8 943f 21e6 9f3f 9a54 1abf ddb9 483e
000000b0: 0f86 0d3f bb9b e93d 0474 61bf c558 783d
000000c0: 4e16 43bf 5992 7c3f d272 c13e 5c62 783f
000000d0: 8831 903f 8b7f 65be 4df0 fb3e 93fc 243e
000000e0: 50f1 013f ac88 02be 4aa9 d8be 55bb a43f
000000f0: e8e4 eb3c 0301 003e f668 693f 4c29 3fbf
0.4458676 -1.0535624 0.44404116 0.5465345 0.7175048 0.18481417 -0.23209384 0.83071303
-0.31390926 0.5948245 0.5011395 -0.89767003 0.5187744 0.39921844 -0.39252326 1.0646261
-0.05845796 0.52661824 -0.18363908 -0.38962388 -0.16053359 -0.25805837 1.576308 -0.3921455
1.0848173 -0.427922 1.0827177 -0.6126566 -0.43544027 1.1344306 1.0102924 0.62417316
-0.2957508 0.33671305 -0.8509609 0.6110145 0.49743786 -0.7742762 0.71557283 -0.4747088
1.1638328 1.2492105 -0.6028534 0.19602151 0.5528268 0.11406656 -0.8806765 0.060631532
-0.7620591 0.9866081 0.37782913 0.97025084 1.1265116 -0.22411935 0.49206772 0.16111974
0.5075884 -0.12747449 -0.42316657 1.2869669 0.028795674 0.12500386 0.9117578 -0.7467239

l2.bias f4 [8]
00000000: 169a 64be 4d2e 603e 609d 1d3f c43d a43e
00000010: 5c32 a83e d132 a53e 694e d83e 1e6f e33e
-0.22324404 0.21892662 0.6156826 0.32078373 0.3285092 0.32265332 0.42247322 0.44420713

l3.weight f4 [7, 8]
00000000: c282 12bf baa2 a4bf 2059 1bbf 6f4c 473e
00000010: 5653 2fbf dd61 053f 0eb8 8cbf 69ce f93e
00000020: e94a fd3e 0157 9b3e 8233 c3be 8b85 1b3f
00000030: 3cca bcbe ed33 62bf 513d 8bbf 4bd9 76bf
00000040: 40af a1bf 001a 933f 56cd 3c3e a878 1fbe
00000050: d816 41bf 2f11 033e 5190 013f b626 62bf
00000060: 0570 0cc0 fee4 2ebf dc84 863f c6d1 9abf
00000070: 3622 fe3e 5543 d8be a907 d93e a07d 053f
00000080: ae19 d8be 85e6 3ebf 11f9 75bf de35 bbbf
00000090: b77f 0e3e 2daa 143f 04a9 b83e 4cd3 943e
000000a0: 7bd5 963e dc14 22bf 0121 7dbf 2a12 4d3d
000000b0: fe89 8dbf 418f a3bf c856 003f 1640 013f
000000c0: 8bfb 75bf 5612 9bbf 4a09 763f a6bd 293f
000000d0: 4458 3dbf 2ba0 93bf 04da 1fbf e2d7 1c3e
-0.5723077 -1.286216 -0.6068287 0.19462751 -0.68486536 0.5210245 -1.0993669 0.4879029
0.49471214 0.30339816 -0.38125235 0.60750645 -0.36873043 -0.8836048 -1.0878087 -0.9642531
-1.2631607 1.149231 0.18437704 -0.1557337 -0.7542548 0.12799524 0.50610834 -0.8834032
-2.1943371 -0.68318164 1.0509295 -1.2095268 0.49635476 -0.4223887 0.42388657 0.52144814
-0.42207092 -0.74570495 -0.9608317 -1.4625814 0.13915907 0.5807217 0.3606645 0.29067457
0.29459748 -0.6331308 -0.98878485 0.05006615 -1.1057737 -1.2778093 0.5013242 0.5048841
-0.9608695 -1.2114971 0.96107924 0.66305006 -0.7396281 -1.1533254 -0.6244204 0.15316728

l3.bias f4 [7]
00000000: 85f4 71bd b6b5 0d3e d72a d2bd e1d5 71bd
00000010: b3b4 e9be 63be ddbb 9bc6 463d
-0.059071083 0.13838848 -0.10262077 -0.05904186 -0.45645675 -0.0067670806 0.04852925
